model_cnn (1).pth (torch, 435171 bytes, 8 tensors)

conv1.weight f4 [6, 3, 5, 5]
-0.1529227 -0.078732334 -0.16823044 -0.0037306098 -0.014171721 -0.14530744 -0.20528767 -0.04326618
-0.010808525 -0.10628388 -0.03714986 -0.19025007 -0.01927105 -0.012504599 -0.013212128 0.08338029
0.08548483 0.10826212 -0.0022456152 0.07081852 0.3004794 0.2877813 0.14993417 0.19935858
0.29938394 0.026465893 0.07573298 0.12224413 0.13951641 -0.03395856 0.07515431 0.062027358
0.11279037 0.14612466 0.009909976 -0.077926874 0.09566094 0.09828841 0.057387765 0.08908363
-0.15952347 0.0021253873 -0.026140602 -0.07095234 -0.040647544 -0.20316026 -0.10713387 -0.15749978
-0.011335965 -0.15670346 0.012896695 0.032296624 0.08181948 0.16395311 -0.029847343 -0.043353245
-0.028128533 0.13537276 0.20925131 -0.030546585 0.084516674 0.074303366 0.0027441492 0.073950715
0.08890956 -0.011090933 -0.027740333 -0.0018716211 0.09353965 0.14068547 -0.11007639 -0.10736397
-0.023513269 -0.004856725 -0.04687578 0.038211416 0.049938664 0.04824928 -0.0028019818 -0.11505673
-0.022316614 -0.05955932 0.0683541 0.06973413 0.10092008 -0.09059702 -0.1594536 -0.22789593
-0.18860127 -0.062036812 -0.10906626 -0.19643761 -0.10926137 -0.21876967 -0.14817297 0.035776436
-0.1999821 -0.10256038 -0.20356563 -0.15915717 0.052825328 -0.0329891 -0.04454609 -0.030917713
-0.07069324 -0.13992907 -0.047837663 0.091535844 0.0058838627 0.013903948 0.09374689 -0.03342391
0.027655985 0.1169903 0.08899293 -0.04070079 0.0039226986 -0.13295783 -0.11591281 0.03503112
0.08730966 0.06691776 -0.08684463 -0.08266895 0.028050797 0.022656385 0.17660402 0.06563392
0.06974697 0.008544918 -0.012854161 0.22393194 0.20928252 0.1617985 0.22507995 0.05993965
-0.0015785113 0.106645904 0.08072634 0.011747536 0.07371246 0.14358345 0.15581651 0.115197495
0.037202407 0.10834437 0.039777312 -0.033308726 0.065781265 -0.0004961669 0.0932584 -0.01278658
0.12878926 0.0040792706 0.05920551 0.1092084 -0.06284518 -0.06136421 0.02338365 0.086716264
0.12173872 -0.2058634 -0.05052395 0.19084832 0.047374405 0.20854603 -0.14841731 -0.19216384
0.14895652 0.029407887 -0.0051685465 -0.16905454 -0.23851825 0.041245293 0.12058543 -0.1510625
-0.034568768 -0.14065434 -0.0075465683 -0.027976964 0.0062113446 -0.11459379 0.04184274 0.08614391
-0.059416175 0.00998984 -0.3312475 -0.18087989 0.04294659 0.09393538 0.16005018 -0.24642472
-0.12089578 0.20609777 0.09493819 0.16390249 0.0030211573 -0.19933121 -0.0011721685 0.13995755
0.017615294 0.022211272 0.09084403 -0.035463277 -0.026425892 -0.06772797 -0.11541753 0.100170396
0.032176007 0.018056216 0.11690675 -0.14768195 0.02179732 0.13178258 0.107165106 0.1014527
-0.2702632 -0.14546241 0.13772365 0.13169378 0.13022555 -0.18011564 -0.07835288 0.050373208
0.032590665 0.02678037 0.17650512 -0.075870425 0.1319359 0.017933788 -0.16502096 -0.2520409
-0.21294598 -0.20726402 -0.14469075 -0.00025032312 0.08170723 0.20968953 0.013140112 0.07802747
0.09253755 0.052073944 0.18622877 0.06094762 -0.039953694 0.02421155 0.09235052 -0.063183196
0.0048747314 -0.08240168 0.09948899 -0.07653665 -0.12947622 -0.006375683 0.017453648 -0.09484924
00000000: c597 1cbe 6b3e a1bd 9a44 2cbe 3f7d 74bb
00000010: 8230 68bc 79cb 14be ee36 52be e137 31bd
00000020: 3d16 31bc 5dab d9bd 742a 18bd ead0 42be
00000030: 52de 9dbc 17e0 4cbc ae77 58bc 49c3 aa3d
00000040: ac12 af3d 88b8 dd3d 2c2b 13bb 4d09 913d
00000050: 70d8 993e 1258 933e 5888 193e a824 4c3e
00000060: da48 993e 00cf d83c e519 9b3d 215b fa3d
00000070: 64dd 0e3e 2218 0bbd 81ea 993d 6610 7e3d
00000080: a3fe e63d b4a1 153e 745d 223c 2098 9fbd
00000090: e2e9 c33d 6f4b c93d 6f0f 6b3d 7a71 b63d
000000a0: 1f5a 23be 154a 0b3b d124 d6bc 764f 91bd
000000b0: 0a7e 26bd 3e09 50be 0169 dbbd 9f47 21be
000000c0: 7cba 39bc df76 20be a94c 533c 7749 043d
000000d0: f990 a73d 53e3 273e 6a82 f4bc 2c93 31bd
000000e0: cf6d e6bc 289f 0a3e fa45 563e d53c fabc
000000f0: 1417 ad3d 5d2c 983d 2fd7 333b 7973 973d
00000100: 3716 b63d bfb6 35bc b23f e3bc 2f51 f5ba
00000110: b791 bf3d da0f 103e bb6f e1bd a4e1 dbbd
00000120: e69e c0bc 2a25 9fbb d100 40bd 9383 1c3d
00000130: 7c8c 4c3d 09a1 453d 74a1 37bb dda2 ebbd
00000140: 55d1 b6bc 79f4 73bd 3cfd 8b3d c4d0 8e3d
00000150: 30af ce3d ee8a b9bd ce47 23be 8d5d 69be
00000160: b120 41be 501a 7ebd 225e dfbd f126 49be
00000170: 6dc4 dfbd 2805 60be a8ba 17be 508a 123d
00000180: 1cc8 4cbe 2d0b d2bd 8273 50be 19fa 22be
00000190: 5f5f 583d 941f 07bd f675 36bd 2547 fdbc
000001a0: 9ec7 90bd 9149 0fbe 6df1 43bd 2577 bb3d
000001b0: 6bcd c03b 62cd 633c 5ffe bf3d 83e7 08bd
000001c0: ce8e e23c 9c98 ef3d ed41 b63d dfb5 26bd
000001d0: fb89 803b 1926 08be b263 edbd cb7c 0f3d
000001e0: 68cf b23d 2e0c 893d 99db b1bd 574e a9bd
000001f0: c9ca e53c e299 b93c afd7 343e 146b 863d
00000200: 80d7 8e3d fcff 0b3c 429a 52bc 6a4e 653e
00000210: 284e 563e 82ae 253e 5c7b 663e 4783 753d
00000220: 0de6 ceba 2b69 da3d da53 a53d bd78 403c
00000230: 8ff6 963d 8a07 133e 5d8e 1f3e aaec eb3d
00000240: 8d61 183d a7e3 dd3d 89ed 223d bb6e 08bd
00000250: 54b8 863d 3211 02ba 43fe be3d ce7e 51bc
00000260: 55e1 033e 67ab 853b 7a81 723d a7a8 df3d
00000270: f9b4 80bd 0a59 7bbd 128f bf3c 4c98 b13d
00000280: 2652 f93d dbcd 52be 34f2 4ebd be6d 433e
00000290: aa0b 423d 178d 553e b5fa 17be 99c6 44be
000002a0: 0f88 183e cfe8 f03c e95c a9bb a21c 2dbe
000002b0: 213e 74be d3f0 283d 7ef5 f63d 21b0 1abe
000002c0: fb97 0dbd b107 10be 3449 f7bb f22f e5bc
000002d0: 8988 cb3b 26b0 eabd 4b63 2b3d 386c b03d
000002e0: 605e 73bd 6dac 233c 4699 a9be 9438 39be
000002f0: c3e8 2f3d 3161 c03d 32e4 233e c356 7cbe
00000300: 3598 f7bd 4b0b 533e f46e c23d 0ed6 273e
00000310: 9cfe 453b 7b1d 4cbe 73a3 99ba 0851 0f3e
00000320: f34d 903c 6af4 b53c 6f0c ba3d f141 11bd
00000330: 1d7b d8bc f6b4 8abd 0760 ecbd 2326 cd3d
00000340: fdca 033d a1ea 933c ce6c ef3d f039 17be
00000350: 4b90 b23c 03f2 063e 6179 db3d 6fc6 cf3d
00000360: f05f 8abe 19f4 14be 6e07 0d3e bcda 063e
00000370: d959 053e 3c70 38be 7a77 a0bd 2354 4e3d
00000380: ca7d 053d 8262 db3c c2bd 343e f461 9bbd
00000390: 341a 073e e1e9 923c 41fb 28be 810b 81be
000003a0: 830e 5abe 053d 54be d029 14be cd3d 83b9
000003b0: 1f56 a73d dab8 563e a049 573c decc 9f3d
000003c0: 5484 bd3d 7d4b 553d c1b2 3e3e 36a4 793d
000003d0: 7ca6 23bd 4d57 c63c 4522 bd3d 3166 81bd
000003e0: 36bc 9f3b 36c2 a8bd e2c0 cb3d 3fbf 9cbd
000003f0: 6a95 04be 1beb d0bb f4fa 8e3c 5140 c2bd

conv1.bias f4 [6]
-0.1955514 0.10386349 0.03640518 0.03172421 0.063486636 0.380169
00000000: a03e 48be 62b6 d43d 991d 153d 3ff1 013d
00000010: 4805 823d 83a5 c23e

conv2.weight f4 [16, 6, 5, 5]
0.06185932 0.06535909 -0.020542415 -0.016105097 -0.018678688 0.09011974 0.007303905 0.03441672
0.017645344 -0.053872924 0.008909193 0.067709856 -0.034802977 0.0022710173 -0.092421554 -0.02237746
0.042424995 0.045523733 -0.13195203 0.049424615 -0.00012842179 0.045526277 0.08297932 -0.04957828
-0.07586905 -0.05688988 -0.18167649 -0.08555423 -0.0060378127 -0.014147038 -0.01564489 -0.20884022
-0.1819895 -0.010005175 0.09831568 -0.04547373 -0.09067668 -0.16888906 -0.0723259 0.0015555869
-0.12778415 -0.024632236 -0.049361713 -0.1325389 -0.077807344 -0.2377411 -0.066521674 -0.10323899
-0.07884778 -0.061897315 -0.07034469 -0.1891589 0.1202735 0.1603785 0.050928872 -0.098607406
-0.033097643 -0.12783533 0.14961515 0.013966618 0.00959444 0.014115747 -0.24388553 -0.06523066
0.20748688 -0.036254816 -0.055176284 0.17142351 -0.1046572 0.005499196 -0.0036524292 -0.020212187
0.13817571 0.04482024 -0.07984428 0.051122103 0.07893488 0.024017647 -0.030976368 -0.07134471
-0.034884334 0.025350822 0.11988522 0.05145709 -0.16445494 -0.0036209442 -0.05844238 0.113563135
-0.042068426 0.0021414044 0.09134696 0.017092077 -0.3105945 0.00071341044 0.12333619 0.04326738
-0.10370033 0.009119361 -0.067078635 0.03766165 0.10077092 0.009049382 0.022578603 -0.08779061
-0.104222886 0.13616714 0.026254954 0.07070067 -0.050837576 -0.018025745 0.14744575 0.019700397
0.11285422 -0.040524524 0.03882458 0.17246608 0.054597925 0.12242713 -0.005104912 -0.015832944
0.12201146 0.15000436 0.036815852 0.03246666 0.08006049 -0.11725535 0.0394213 0.017773679
-0.020211438 -0.12240334 0.006411516 0.095382504 -0.0377848 0.1009332 -0.02863523 -0.03711309
-0.14539054 -0.040422946 0.15397903 0.14280738 -0.013320217 -0.25683513 -0.2627994 -0.0014892567
0.12840925 -0.05114432 0.007098282 -0.14132597 0.0020861034 -0.076614134 0.055388883 -0.012938228
-0.19800818 -0.22245984 0.028781572 0.012182416 -0.04212689 -0.18717372 -0.25323632 -0.1445206
-0.0003438436 0.08964845 0.040074345 -0.20798814 -0.24715126 -0.01996488 0.13722613 0.056669824
0.07829814 -0.005267763 0.10721667 0.14579044 0.21172293 0.12965378 0.03659198 0.06117002
0.030173127 -0.0033978517 -0.12873708 -0.16265596 0.06928574 0.009377084 -0.23607183 -0.34650612
-0.09092699 0.161506 0.13256113 -0.04245705 -0.308857 -0.0675765 0.03934232 0.07651024
0.047606863 -0.19004117 -0.044003725 0.060803108 0.10549539 0.08775288 0.09523495 0.11741114
0.019367168 0.009697437 -0.0029836374 0.093909346 0.088035986 -0.06098796 -0.086741515 -0.21621662
-0.0042456463 -0.012378158 -0.06130388 -0.114644915 -0.08145863 -0.016638028 0.16388185 -0.061904147
-0.2378326 -0.09156219 0.011040348 0.20893815 -0.0039163483 -0.16274206 -0.04382217 -0.068987094
0.217879 -0.0117949275 -0.07403188 -0.12560357 -0.35765588 -0.21446534 -0.07294456 -0.019037655
0.054931685 -0.13380893 -0.28441557 0.101925135 0.2622567 0.33549276 0.29651663 0.02119698
0.14511025 0.15098488 0.15710083 0.18684158 0.1372461 0.09507531 0.016240235 -0.05901776
-0.06280555 -0.03642754 -0.03442168 -0.19894415 -0.28378588 -0.26060638 -0.19923204 0.055828266
00000000: 3360 7d3d fdda 853d 9148 a8bc d6ee 83bc
00000010: 0c04 99bc b390 b83d 9955 ef3b 8cf8 0c3d
00000020: f88c 903c dba9 5cbd ddf7 113c 77ab 8a3d
00000030: 918d 0ebd 59d5 143b 8347 bdbd ef50 b7bc
00000040: d5c5 2d3d 1877 3a3d 6f1e 07be 7771 4a3d
00000050: f6a8 06b9 c379 3a3d 10f1 a93d 9812 4bbd
00000060: 3c61 9bbd 5d05 69bd 6709 3abe 0e37 afbd
00000070: d8d8 c5bb fac8 67bc b629 80bc 36da 55be
00000080: 755b 3abe bfec 23bc bb59 c93d a942 3abd
00000090: b2b4 b9bd 41f1 2cbe 9a1f 94bd d6e4 cb3a
000000a0: d9d9 02be 8bc9 c9bc 822f 4abd 47b8 07be
000000b0: 7559 9fbd 6772 73be 843c 88bd f76e d3bd
000000c0: f27a a1bd 0a88 7dbd e010 90bd dfb2 41be
000000d0: f451 f63d 433a 243e cb9a 503d aef2 c9bd
000000e0: 6591 07bd 44e7 02be b734 193e 3ed4 643c
000000f0: 0032 1d3c bc45 673c 21bd 79be a797 85bd
00000100: 7177 543e ee7f 14bd 8700 62bd a589 2f3e
00000110: 8456 d6bd 9932 b43b 985d 6fbb 0794 a5bc
00000120: ef7d 0d3e 6e95 373d 6685 a3bd 6965 513d
00000130: 9ca8 a13d a8c0 c43c 27c2 fdbc 2d1d 92bd
00000140: e0e2 0ebd 87ac cf3c 6286 f53d abc4 523d
00000150: e066 28be 5d4d 6dbb 4761 6fbd ca93 e83d
00000160: f14f 2cbd ce56 0c3b 1d14 bb3d af04 8c3c
00000170: 3e06 9fbe 2a04 3b3a af97 fc3d 2339 313d
00000180: d760 d4bd 5f69 153c 8660 89bd 1a43 1a3d
00000190: fc60 ce3d dc43 143c c3f6 b83c 90cb b3bd
000001a0: cf72 d5bd 666f 0b3e a114 d73c 83cb 903d
000001b0: 103b 50bd baaa 93bc 05fc 163e ba62 a13c
000001c0: 1d20 e73d 0bfd 25bd 8606 1f3d f39a 303e
000001d0: 13a2 5f3d 13bb fa3d 1b47 a7bb 17b4 81bc
000001e0: 25e1 f93d be9a 193e 38cc 163d c3fb 043d
000001f0: c1f6 a33d 9323 f0bd 3b78 213d 1b9a 913c
00000200: 7592 a5bc 9aae fabd b217 d23b e757 c33d
00000210: 3cc4 1abd 11b6 ce3d 6e94 eabc e503 18bd
00000220: 42e1 14be 8892 25bd aeac 1d3e 193c 123e
00000230: 0a3d 5abc e57f 83be a58d 86be 2a33 c3ba
00000240: b77d 033e b57c 51bd b598 e83b c1b7 10be
00000250: 02b7 083b dfe7 9cbd 74df 623d ddfa 53bc
00000260: a8c2 4abe 83cc 63be 55c7 eb3c c298 473c
00000270: 3f8d 2cbd 78aa 3fbe 31a8 81be 35fd 13be
00000280: e845 b4b9 9b99 b73d ff24 243d d8fa 54be
00000290: 3815 7dbe 638d a3bc 0285 0c3e 9e1e 683d
000002a0: c65a a03d 339d acbb 6a94 db3d 174a 153e
000002b0: e5cd 583e f6c3 043e 79e1 153d 6a8d 7a3d
000002c0: a22d f73c 7eae 5ebb a7d3 03be 498f 26be
000002d0: afe5 8d3d 57a2 193c d0bc 71be 4069 b1be
000002e0: ee37 babd d461 253e 1bbe 073e 72e7 2dbd
000002f0: 8122 9ebe 8c65 8abd 6a25 213d 67b1 9c3d
00000300: 6aff 423d 279a 42be 403d 34bd ae0c 793d
00000310: f80d d83d c8b7 b33d 8b0a c33d 4075 f03d
00000320: e5a7 9e3c 00e2 1e3c 2189 43bb 8b53 c03d
00000330: 364c b43d 83ce 79bd 89a5 b1bd e467 5dbe
00000340: 101f 8bbb c2cd 4abc c719 7bbd f4ca eabd
00000350: c8d3 a6bd 794c 88bc a5d0 273e 348f 7dbd
00000360: 648a 73be f584 bbbd 93e2 343c e2f3 553e
00000370: b654 80bb dba5 26be e07e 33bd 1b49 8dbd
00000380: ac1b 5f3e 833f 41bc 079e 97bd 399e 00be
00000390: ac1e b7be cd9c 5bbe f563 95bd dbf4 9bbc
000003a0: 0c00 613d 3505 09be eb9e 91be 20be d03d
000003b0: 8346 863e b5c5 ab3e 07d1 973e 4aa5 ad3c
000003c0: c897 143e c89b 1a3e 0adf 203e 6653 3f3e
000003d0: 3e8a 0c3e d8b6 c23d 3e0a 853c 9bbc 71bd
000003e0: 32a0 80bd 0b35 15bd bffd 0cbd 04b8 4bbe
000003f0: 624c 91be 336e 85be 7c03 4cbe 2eac 643d

conv2.bias f4 [16]
0.29243428 0.03216056 -0.2489933 0.24202394 -0.036710486 -0.020948676 -0.10367353 0.113936536
-0.035509765 0.15719363 0.042134814 -0.029841378 -0.014209237 -0.32293233 -0.11809461 0.19159816
00000000: f2b9 953e cbba 033d 1af8 7ebe 20d5 773e
00000010: bc5d 16bd 8f9c abbc ca52 d4bd 8f57 e93d
00000020: b072 11bd 5ef7 203e 8e95 2c3d e875 f4bc
00000030: dccd 68bc 6357 a5be 96db f1bd 4f32 443e

fc1.weight f4 [256, 400]
-0.17349301 0.020770669 0.008096803 0.058240302 -0.09721527 -0.13093668 0.07122999 0.22545728
0.21439874 0.07303147 -0.15040073 0.1203485 0.18412505 0.260684 0.06801854 -0.0011285659
0.10801764 0.24186097 0.24856566 -0.0014641061 -0.19922805 -0.04529799 -0.012605424 0.014950038
-0.16969006 -0.08031973 0.007196735 0.024999952 0.03212231 -0.1467728 -0.04640459 -0.041220002
-0.08147554 0.004431933 -0.06131762 0.0037582098 -0.20114082 -0.24753472 -0.10394828 0.016354058
-0.011434092 -0.05299072 -0.07688481 -0.038187988 0.020753982 0.016342772 -0.16862501 -0.071336016
-0.045669377 0.11877463 -0.039344277 0.057554275 -0.09570054 0.021297047 0.0365345 -0.20287023
-0.14286636 -0.11335977 -0.10299426 0.035397753 -0.43717837 -0.2751711 -0.23333173 -0.17507057
-0.007967777 -0.29718292 -0.18735899 -0.20693654 -0.14501156 0.0369759 -0.26981208 0.11801821
0.06865312 0.023639036 0.029684404 -0.009256899 -0.01914152 -0.0664233 -0.19937241 -0.33590588
0.03503145 0.1752026 0.15193206 -0.057799727 -0.18622164 0.028683921 0.031878717 0.15704063
0.090585604 -0.22277945 -0.036947146 -0.04311467 -0.14469732 -0.15207231 -0.29149672 -0.04167641
-0.25669706 -0.3351749 -0.39452162 -0.2280564 -0.03471346 -0.021407299 -0.03335222 0.039941043
0.007419671 -0.007854561 -0.046105426 -0.05102574 -0.121604085 0.011924933 -0.007937731 0.02105756
-0.027374849 0.024046088 0.072738886 -0.022395078 0.002654072 -0.014662438 0.06724174 -0.00590583
0.0661931 0.009383224 0.07376001 -0.03545043 0.052779898 -0.040997583 -0.23012291 -0.1938165
-0.0830387 0.032316368 -0.019334078 -0.21803427 -0.09711261 -0.1958484 0.17185801 0.011256795
-0.3606165 -0.056450747 -0.076273486 -0.036273196 -0.058154874 -0.1784289 -0.1020966 -0.091366254
-0.21262193 0.029194657 -0.046539266 0.0454628 -0.07913927 0.11517815 -0.03877449 0.014824114
-0.04885436 -9.274805e-05 -0.016698856 -0.07236132 0.03113399 -0.013475208 -0.05305637 -0.022633359
-0.014398626 -0.03191721 0.032718845 -0.0039495826 -0.03195257 0.02670276 -0.030837303 0.0013989215
0.020759882 0.0028270069 -0.022489611 -0.0012469202 0.02307845 0.04532367 0.045165118 0.04459667
-0.07808402 0.011580441 0.0057045994 0.07216742 -0.05121124 -0.0560695 -0.010736456 0.13804029
0.034396436 -0.13997214 -0.12559305 -0.076190084 -0.11950384 0.005053466 -0.065257415 -0.23441891
-0.17899732 -0.058287684 0.0126532875 -0.09494526 -0.329384 -0.23583004 -0.16150121 -0.015200846
0.16373816 0.04977923 -0.2121043 -0.1730448 0.030111125 0.05799455 -0.10187693 -0.079082675
-0.11276391 -0.13876614 -0.06978605 -0.21174331 -0.2197128 -0.36966404 -0.2701146 -0.02506003
0.0063533215 -0.08276217 -0.24638134 -0.09789651 -0.13428359 0.038152013 0.0802276 -0.0278609
-0.1670372 0.041624594 -0.06149131 0.10380462 0.23212227 0.25798926 0.029317383 -0.23282877
-0.27771565 -0.03101698 0.06945407 0.05258334 -0.09776447 -0.26281294 -0.21931839 -0.022224639
-0.11124076 0.030576915 -0.068013735 -0.08145706 -0.001661112 0.0420804 0.062206272 0.14584698
0.1313885 0.16961782 0.072155856 0.07653885 0.05541051 -0.092049666 0.048309002 -0.009876087
00000000: 27a8 31be 4027 aa3c 74a8 043c 628d 6e3d
00000010: cd18 c7bd 4414 06be 07e1 913d 46de 663e
00000020: 588b 5b3e 8691 953d a602 1abe 4679 f63d
00000030: 478b 3c3e 6078 853e 4e4d 8b3d 63ec 93ba
00000040: 5a38 dd3d 67aa 773e ff87 7e3e 40e7 bfba
00000050: 7002 4cbe 638a 39bd fb86 4ebc 01f1 743c
00000060: 3bc3 2dbe ac7e a4bd 97d2 eb3b b3cc cc3c
00000070: af92 033d 9c4b 16be bd12 3ebd 4ed6 28bd
00000080: a6dc a6bd c039 913b 2f28 7bbd 4c4c 763b
00000090: dcf7 4dbe be79 7dbe d6e2 d4bd f2f8 853c
000000a0: 0f56 3bbc cc0c 59bd c975 9dbd 026b 1cbd
000000b0: 4104 aa3c 47e1 853c 09ac 2cbe 9e18 92bd
000000c0: d00f 3bbd 1d40 f33d 7727 21bd 08be 6b3d
000000d0: a5fe c3bd 2577 ae3c 33a5 153d 37bd 4fbe
000000e0: 8f4b 12be 2b29 e8bd a8ee d2bd 3cfd 103d
000000f0: d8d5 dfbe 3ae3 8cbe 83ee 6ebe b345 33be
00000100: 478b 02bc 5c28 98be 09db 3fbe 2ce7 53be
00000110: e97d 14be 0b74 173d cf24 8abe 88b3 f13d
00000120: 029a 8c3d a7a6 c13c b52c f33c 40aa 17bc
00000130: adce 9cbc f008 88bd 4828 4cbe dbfb abbe
00000140: 237d 0f3d 4f68 333e 1494 1b3e 68bf 6cbd
00000150: e3b0 3ebe 8bfa ea3c 4293 023d 42cf 203e
00000160: f284 b93d 4c20 64be e455 17bd 0299 30bd
00000170: 892b 14be d8b8 1bbe 0f3f 95be e2b4 2abd
00000180: cc6d 83be 0b9c abbe bdfe c9be 9e87 69be
00000190: b32f 0ebd 5c5e afbc 569c 08bd 3899 233d
000001a0: b620 f33b 6bb0 00bc 0bd9 3cbd 5e00 51bd
000001b0: 900b f9bd cb60 433c 420d 02bc e780 ac3c
000001c0: 3841 e0bc 4dfc c43c 20f8 943d e275 b7bc
000001d0: f0ef 2d3b b93a 70bc 0ab6 893d b185 c1bb
000001e0: 3f90 873d 18bc 193c 7d0f 973d 7834 11bd
000001f0: bc2f 583d 15ed 27bd 57a5 6bbe d577 46be
00000200: 3210 aabd 2b5e 043d 8062 9ebc 6044 5fbe
00000210: fae2 c6bd 7c8c 48be 8cfb 2f3e 6c6e 383c
00000220: baa2 b8be e638 67bd 4635 9cbd 3493 14bd
00000230: ce33 6ebd 11b6 36be 0618 d1bd 3b1e bbbd
00000240: 90b9 59be a229 ef3c f59f 3ebd 3337 3a3d
00000250: c513 a2bd 86e2 eb3d 00d2 1ebd d7e0 723c
00000260: 821b 48bd bb81 c2b8 0acc 88bc 2c32 94bd
00000270: b60c ff3c 1ec7 5cbc a351 59bd 9869 b9bc
00000280: 37e8 6bbc 9fbb 02bd 3204 063d 806b 81bb
00000290: b3e0 02bd bfbf da3c 839e fcbc 045c b73a
000002a0: a110 aa3c 4e45 393b 223c b8bc b36f a3ba
000002b0: 040f bd3c 50a5 393d 0fff 383d ffaa 363d
000002c0: 84ea 9fbd e4bb 3d3c a6ed ba3b 83cc 933d
000002d0: e1c2 51bd 22a9 65bd f6e7 2fbc 6f5a 0d3e
000002e0: 47e3 0c3d db54 0fbe 779b 00be 8c09 9cbd
000002f0: 6ebe f4bd 8c97 a53b aea5 85bd 830b 70be
00000300: 134b 37be 11bf 6ebd bc4f 4f3c a972 c2bd
00000310: 05a5 a8be 6e7d 71be 9360 25be f80c 79bc
00000320: faaa 273e 4ee5 4b3d df31 59be a832 31be
00000330: 9bab f63c b18b 6d3d daa4 d0bd 19f6 a1bd
00000340: c4f0 e6bd b618 0ebe fdeb 8ebd 3dd3 58be
00000350: 64fc 60be 9b44 bdbe 764c 8abe b14a cdbc
00000360: 862f d03b 367f a9bd 644b 7cbe f77d c8bd
00000370: a381 09be 4945 1c3d 5e4e a43d 8b3c e4bc
00000380: cd0b 2bbe 8d7e 2a3d 50de 7bbd 8497 d43d
00000390: 76b1 6d3e 2b17 843e 022b f03c aa6a 6ebe
000003a0: bf30 8ebe 5217 febc ef3d 8e3d a161 573d
000003b0: bd38 c8bd 6b8f 86be 0095 60be 7210 b6bc
000003c0: 32d2 e3bd 707c fa3c c94a 8bbd f6d2 a6bd
000003d0: abb9 d9ba 7f5c 2c3d 01cc 7e3d e958 153e
000003e0: b58a 063e 4bb0 2d3e 73c6 933d 67c0 9c3d
000003f0: 22f6 623d 8984 bcbd a9df 453d 50cf 21bc

fc1.bias f4 [256]
0.26508948 -0.26629212 0.12208675 0.018679623 -0.030250724 -0.03232774 0.14777716 0.3961691
-0.040994383 -0.21949492 0.28904697 0.26054394 -0.13641095 0.46540946 -0.035805777 -0.0063042124
0.062449113 0.20843907 -0.16219467 -0.27092594 0.36766618 -0.06177984 -0.19606403 0.28737
-0.0400559 -0.06266264 0.28309968 0.13422914 -0.06516082 0.00010106378 -0.0407681 0.13100691
0.052198272 0.0155610135 0.27474836 -0.019044617 0.20470953 0.40380663 0.3276128 0.029908706
-0.031834044 0.20237495 -0.029879397 0.101011485 -0.009785694 0.325382 0.31339803 -0.06356251
-0.12340209 0.33955985 -0.017987644 -0.05503191 0.17643394 -0.20390278 -0.06364243 0.3950711
0.38839054 0.032799892 -0.009957547 -0.043469734 -0.060514532 -0.059480526 -0.069462165 0.08421412
0.28127 0.19492882 -0.1618177 0.037289735 -0.036652427 0.27683476 -0.017251236 -0.019267578
-0.09704061 0.2186423 -0.15484445 -0.018756848 0.29103032 -0.10779948 0.086061075 0.15974605
0.4187081 -0.07884387 0.0013225785 0.41695043 -0.1835445 -0.04698047 0.068764046 0.5480914
0.08069979 -0.14202392 0.44546866 0.08884466 0.20572957 -0.017016547 -0.099234834 0.08621644
0.18360767 -0.15152311 0.47556525 0.32603356 -0.0581886 0.25078425 -0.22050466 -0.026424233
-0.111767165 0.005051588 0.14334863 -0.17588441 -0.009874606 -0.08804601 0.18394512 -0.054709397
-0.045075618 0.05260461 -0.0071013747 0.031379897 0.26602167 0.16104907 -0.014895013 0.36413595
0.10703359 0.40489712 0.0029862854 -0.061960626 0.45977592 0.4379933 0.22603375 0.21621718
0.13267086 0.06281747 0.32544792 0.09048919 0.30720925 -0.05241577 0.3755626 0.37951458
0.122660026 0.010633282 -0.02504589 -0.09818167 -0.0447312 -0.016337197 -0.16163456 -0.054008175
0.3892832 0.29524207 0.21836402 -0.031967156 0.011707548 0.003372242 -0.048583757 -0.079308316
-0.13276562 0.0016542814 -0.055242144 -0.02302629 0.021419408 -0.069390334 0.3635278 0.0067359596
0.29733375 0.073044 -0.06228719 -0.086086415 -0.0061423327 -0.2740461 0.41561192 0.43980536
-0.023008617 -0.05099704 -0.05869943 -0.06599692 0.4315164 -0.0045541767 -0.103507906 0.16410956
-0.03164548 -0.062389113 0.24246216 0.26468754 0.01738339 0.24530543 0.31325403 0.028411552
-0.054411612 -0.20077361 0.0072882907 0.3033265 0.1574114 0.26894838 -0.063369595 0.09710191
0.2930081 -0.1510746 0.32833713 -0.07424029 0.012879686 -0.061998203 -0.19840457 -0.026388964
-0.04506082 0.09465035 0.23250234 -0.04651991 -0.09191337 -0.046477508 -0.051661782 -0.2431748
0.039094243 0.11076279 0.1968349 -0.104787216 0.4030274 0.30704388 0.45098603 0.0146536175
-0.07009247 -0.051868517 -0.056059014 -0.068703935 0.22455321 -0.03752545 -0.027325358 -0.32014674
-0.05965854 -0.05099447 -0.022804309 0.11578435 -0.022424284 0.13007697 -0.058769472 0.16834037
-0.023805214 -0.23422225 -0.06096879 -0.051332638 0.049628552 0.0071415305 0.3588046 0.10253748
0.5980612 -0.03125567 0.04455118 -0.022401892 -0.07423631 -0.024843171 -0.114218466 -0.1177302
0.26216364 0.5421077 0.06594921 0.016871907 -0.0454673 -0.39079624 0.11544922 0.07264002
00000000: cfb9 873e 7157 88be 9e08 fa3d 0206 993c
00000010: 5ed0 f7bc 186a 04bd e552 173e add6 ca3e
00000020: bae9 27bd 47c3 60be f7fd 933e 0466 853e
00000030: 50af 0bbe 264a ee3e 14a9 12bd 9193 cebb
00000040: a4ca 7f3d 0d71 553e 5c16 26be ceb6 8abe
00000050: be3e bc3e dc0c 7dbd 02c5 48be 2922 933e
00000060: a811 24bd 4555 80bd 71f2 903e 5d73 093e
00000070: 0973 85bd 34f2 d338 74fc 26bd ad26 063e
00000080: dbcd 553d 9ff3 7e3c d1ab 8c3e 7503 9cbc
00000090: 609f 513e bebf ce3e ddbc a73e 1a03 f53c
000000a0: 6a64 02bd 613b 4f3e a3c5 f4bc 1cdf ce3d
000000b0: 2d54 20bc 7898 a63e b575 a03e 102d 82bd
000000c0: 3cba fcbd cada ad3e d35a 93bc 2469 61bd
000000d0: 19ab 343e e4cb 50be f656 82bd c246 ca3e
000000e0: 20db c63e 2e59 063d fb24 23bc 520d 32bd
000000f0: 16de 77bd daa1 73bd 2e42 8ebd 7478 ac3d
00000100: 9f02 903e 6c9b 473e 8ab3 25be 1fbd 183d
00000110: db20 16bd 49bd 8d3e 7752 8dbc 0ad7 9dbc
00000120: 3abd c6bd c4e3 5f3e 8b8f 1ebe f6a7 99bc
00000130: ed01 953e f9c5 dcbd ca40 b03d 7894 233e
00000140: e860 d63e e578 a1bd 5f5a ad3a 877a d53e
00000150: 17f3 3bbe 986e 40bd 2ad4 8c3d b84f 0c3f
00000160: ee45 a53d b86e 11be 7814 e43e 30f4 b53d
00000170: c6aa 523e 4966 8bbc a23b cbbd 3f92 b03d
00000180: a603 3c3e e028 1bbe 4a7d f33e dfed a63e
00000190: 2b57 6ebd cb66 803e f9cb 61be a277 d8bc
000001a0: 2fe6 e4bd cb87 a53b fcc9 123e 0b1b 34be
000001b0: 19c9 21bc 7751 b4bd 1c5c 3c3e f616 60bd
000001c0: 36a1 38bd ee77 573d a6b2 e8bb 3588 003d
000001d0: fe33 883e 0cea 243e 360a 74bc 0770 ba3e
000001e0: 6d34 db3d ad4e cf3e 8eb5 433b 6dca 7dbd
000001f0: c067 eb3e a840 e03e 6475 673e 0968 5d3e
00000200: dfda 073e 72a6 803d 1ca1 a63e 6552 b93d
00000210: 884a 9d3e ebb1 56bd be49 c03e bc4f c23e
00000220: 2e35 fb3d 3837 2e3c 0a2d cdbc 7913 c9bd
00000230: 1038 37bd 96d5 85bc 8883 25be ad37 5dbd
00000240: 2150 c73e f829 973e d19a 5f3e feef 02bd
00000250: 04d1 3f3c d500 5d3b c3ff 46bd 666c a2bd
00000260: b6f3 07be 79d4 d83a 9645 62bd a1a1 bcbc
00000270: c177 af3c 851c 8ebd 5120 ba3e 53b9 dc3b
00000280: 213c 983e 1898 953d da20 7fbd 134e b0bd
00000290: 9f45 c9bb c54f 8cbe 16cb d43e 2b2e e13e
000002a0: 917c bcbc 46e2 50bd d06e 70bd 6529 87bd
000002b0: b8ef dc3e 343b 95bb f4fb d3bd 560c 283e
000002c0: b19e 01bd ba8b 7fbd 0048 783e 2085 873e
000002d0: 9c67 8e3c 5931 7b3e d562 a03e 58bf e83c
000002e0: b6de 5ebd 9997 4dbe 9dd2 ee3b 9c4d 9b3e
000002f0: 7430 213e 9ab3 893e ebc7 81bd 5edd c63d
00000300: 2805 963e 4db3 1abe ce1b a83e 4b0b 98bd
00000310: 5205 533c d4f1 7dbd 912a 4bbe ab2d d8bc
00000320: b291 38bd 0bd8 c13d 1815 6e3e a98b 3ebd
00000330: 143d bcbd 335f 3ebd 4e9b 53bd d102 79be
00000340: 4921 203d 9ad7 e23d 178f 493e ae9a d6bd
00000350: 9b59 ce3e db34 9d3e a4e7 e63e ba15 703c
00000360: a48c 8fbd 1574 54bd 239e 65bd a6b4 8cbd
00000370: 47f1 653e 49b4 19bd 6ed9 dfbc 46ea a3be
00000380: 835c 74bd 94df 50bd 1ad0 babc 5820 ed3d
00000390: 22b3 b7bc e632 053e 42b8 70bd 6b61 2c3e
000003a0: 2703 c3bc f5d7 6fbe 69ba 79bd 2c42 52bd
000003b0: 4f47 4b3d 8003 ea3b 3db5 b73e 2cff d13d
000003c0: 8a1a 193f f205 00bd 4c7b 363d 2c84 b7bc
000003d0: 3509 98bd e883 cbbc 5feb e9bd 881c f1bd
000003e0: 503a 863e 92c7 0a3f 6110 873d f436 8a3c
000003f0: eb3b 3abd 7216 c8be a470 ec3d 4ac4 943d

fc2.weight f4 [10, 256]
-0.00035925696 -0.00807589 0.120601036 0.018570578 0.05230638 -0.12255501 -0.14773683 0.15985546
0.14829506 0.053960696 -0.086208895 0.1626755 -0.19033095 0.069120884 -0.01754261 0.047406234
-0.09882631 0.05875868 0.030862818 0.13272366 0.06973962 -0.03831001 -0.04368173 0.124162264
0.14457336 -0.14498386 -0.09030598 -0.041952033 -0.069123745 -0.021417709 0.14813392 -0.020926893
-0.13948476 -0.028813245 -0.26138026 -0.017480014 -0.03526357 0.2872853 -0.30280092 0.021119269
-0.064670555 -0.36790153 0.036306154 0.06811796 0.019219436 0.16579881 0.2076358 0.15597622
0.045586765 -0.08522625 0.0025148257 0.0887584 0.0063439813 -0.10849341 0.046384554 -0.34366742
-0.39454868 -0.039492488 -0.05817724 -0.039237414 0.015808504 -0.06364754 -0.040462196 -0.071463525
-0.050362997 0.054697804 -0.059763078 0.03169094 0.013157226 0.04096828 0.07806077 -0.005700862
-0.22625513 -0.27393267 0.08553087 -0.014024814 -0.311565 -0.008784666 -0.05840916 0.16100065
0.1262415 0.23359339 -0.011794573 -0.16500314 0.02524196 0.04268189 0.009056002 -0.05638988
0.11519594 -0.034457043 -0.28640687 0.10828285 -0.14359662 -0.04670701 0.003565922 0.077586666
-0.07963984 0.08921742 -0.18675344 0.017553391 -0.00864048 -0.04536465 0.22814538 -0.08124751
0.12257886 0.043805555 -0.12649487 0.17695302 -0.06664714 0.0016414716 0.11960703 -0.029831115
-0.03712092 0.15655613 0.007423069 0.106881656 -0.072921544 0.044288106 -0.2066032 -0.25872046
-0.092363164 0.058934238 -0.03931949 0.017577017 0.04368081 -0.226994 0.0611663 0.1200833
-0.27203554 0.15036297 -0.21438895 0.07918837 0.06078207 -0.06199048 0.034568045 -0.24190062
-0.09076146 0.06095984 0.011915535 -0.01572725 0.10055107 -0.03135441 0.03923857 -0.022791827
0.131526 0.06643386 0.10805995 -0.02573607 -0.15294434 -0.014580233 0.050734352 0.076357886
0.036824577 -0.030103931 -0.011349551 0.0110093905 -0.028489113 0.007263536 -0.0145353135 -0.045971792
-0.09646582 -0.029585464 0.06894701 0.1049114 -0.034417022 0.12711717 0.17969117 -0.09731867
-0.06857219 0.020642629 0.03721107 0.020691715 0.13375057 -0.018980399 -0.1185446 -0.18341774
0.019683763 0.022142533 -0.3026305 0.079418376 0.17080164 0.13574629 0.1244139 0.08911602
0.04208518 -0.049991228 0.004060185 -0.17317544 -0.16630004 -0.05309329 0.0245759 -0.17411762
-0.09022025 0.14638698 -0.34352255 -0.07378053 -0.049457755 0.026981613 -0.0703027 -0.036163814
0.036370985 -0.044364795 -0.05285816 -0.015975708 0.02720544 -0.12052068 0.1060163 0.079750836
0.11645216 -0.04597876 -0.32548314 0.016102698 0.073609866 -0.120785184 0.06275727 -0.035659544
-0.026885714 -0.025350057 0.0040453216 0.013522635 0.28891528 -0.061002597 -0.111228004 -0.021264995
-0.017115243 -0.11354239 -0.035433386 -0.18249509 -0.015054455 -0.031112095 -0.050701335 0.108256616
-0.013111211 0.10411163 0.06492779 0.05555495 -0.16648696 0.14358062 -0.3102405 -0.027403053
-0.34468392 0.024005694 0.1159739 0.02246114 0.074837625 -0.015567467 0.08469995 0.036540277
0.16676712 -0.3385287 -0.093481496 0.03639075 -0.048150413 0.04197097 0.120378435 0.10591344
00000000: a75a bcb9 bd50 04bc adfd f63d 5321 983c
00000010: 373f 563d 1ffe fabd 5348 17be 26b1 233e
00000020: a9da 173e e405 5d3d 4a8e b0bd 6894 263e
00000030: 1ee6 42be 408f 8d3d 85b5 8fbc 0a2d 423d
00000040: 7365 cabd f1ac 703d 05d4 fc3c b6e8 073e
00000050: a5d3 8e3d f5ea 1cbd 9deb 32bd c948 fe3d
00000060: 0a0b 143e a676 14be 57f2 b8bd e5d5 2bbd
00000070: c090 8dbd 3174 afbc 6bb0 173e e06e abbc
00000080: 18d5 0ebe c109 ecbc a2d3 85be 3f32 8fbc
00000090: 8870 10bd 0f17 933e b908 9bbe 5102 ad3c
000000a0: ff71 84bd 975d bcbe c3b5 143d 6e81 8b3d
000000b0: 1472 9d3c 2ac7 293e 7b9e 543e 3bb8 1f3e
000000c0: 30b9 3a3d 1a8b aebd c6cf 243b f7c6 b53d
000000d0: 2ce1 cf3b cb31 debd bbfd 3d3d 2df5 afbe
000000e0: 4902 cabe e0c2 21bd 424b 6ebd 69b7 20bd
000000f0: d680 813c a459 82bd b0bb 25bd 785b 92bd
00000100: 6e49 4ebd ce0a 603d 21ca 74bd 5cce 013d
00000110: 6891 573c 5bce 273d 53de 9f3d 4cce babb
00000120: 6daf 67be e740 8cbe cf2a af3d 55c8 65bc
00000130: 7385 9fbe 8fed 0fbc 713e 6fbd 5bdd 243e
00000140: 7445 013e 1b33 6f3e 063e 41bc 95f6 28be
00000150: 3ac8 ce3c 35d3 2e3d a05f 143c 13f9 66bd
00000160: d9eb eb3d d422 0dbd eca3 92be 66c3 dd3d
00000170: fe0a 13be da4f 3fbd 3eb2 693b c2e5 9e3d
00000180: 361a a3bd 9fb7 b63d 4b3c 3fbe 21cc 8f3c
00000190: cd90 0dbc 49d0 39bd f19e 693e 1865 a6bd
000001a0: a00a fb3d 746d 333d df87 01be 2c33 353e
000001b0: 4c7e 88bd a626 d73a 88f4 f43d 6260 f4bc
000001c0: 1b0c 18bd 4050 203e 373d f33b c5e4 da3d
000001d0: e457 95bd 7267 353d ca8f 53be 0277 84be
000001e0: e628 bdbd 0765 713d 790d 21bd adfd 8f3c
000001f0: a6ea 323d 1d71 68be 8489 7a3d 3cee f53d
00000200: 3e48 8bbe c0f8 193e c788 5bbe 832d a23d
00000210: 9ff6 783d bbe9 7dbd 3997 0d3d ccb4 77be
00000220: 25e1 b9bd 06b1 793d 6039 433c 6fd6 80bc
00000230: b8ed cd3d 7b6d 00bd 9fb8 203d edb5 babc
00000240: c0ae 063e 7a0e 883d 894e dd3d 73d4 d2bc
00000250: 719d 1cbe eee1 6ebc d3ce 4f3d 8661 9c3d
00000260: 5ed5 163d 859c f6bc 78f3 39bc bb60 343c
00000270: 0062 e9bc f502 ee3b 8625 6ebc eb4c 3cbd
00000280: df8f c5bd 375d f2bc 1734 8d3d cadb d63d
00000290: ddf8 0cbd 012b 023e f600 383e 034f c7bd
000002a0: 946f 8cbd bb1a a93c a36a 183d ac81 a93c
000002b0: e9f5 083e c87c 9bbc 83c7 f2bd dcd1 3bbe
000002c0: d83f a13c 4264 b53c 63f2 9abe 1aa6 a23d
000002d0: a0e6 2e3e 1301 0b3e b7cc fe3d 7682 b63d
000002e0: 8261 2c3d 9ac3 4cbd 4d0b 853b e754 31be
000002f0: 8f4a 2abe 5a78 59bd 6653 c93c e44b 32be
00000300: 65c5 b8bd 78e6 153e 30e2 afbe 3f1a 97bd
00000310: 3794 4abd 8b08 dd3c ddfa 8fbd 8220 14bd
00000320: bef9 143d dcb7 35bd cc81 58bd 7ddf 82bc
00000330: f1dd de3c 8cd3 f6bd 131f d93d 6854 a33d
00000340: 787e ee3d 3954 3cbd baa5 a6be cee9 833c
00000350: c5c0 963d 395e f7bd e286 803d be0f 12bd
00000360: 6e3f dcbc ecaa cfbc 9e8e 843b 0b8e 5d3c
00000370: b4ec 933e dcdd 79bd 82cb e3bd ed33 aebc
00000380: 4435 8cbc ea88 e8bd 9922 11bd fedf 3abe
00000390: f6a6 76bc cbde febc 34ac 4fbd a5b5 dd3d
000003a0: 68d0 56bc 7a38 d53d dcf8 843d 968d 633d
000003b0: 8f7b 2abe cc06 133e d8d7 9ebe 5e7c e0bc
000003c0: 697a b0be 97a7 c43c b983 ed3d 6d00 b83c
000003d0: 7844 993d b00e 7fbc 2b77 ad3d 42ab 153d
000003e0: 00c5 2a3e a253 adbe 3a73 bfbd 780e 153d
000003f0: 5e39 45bd c0e9 2b3d f888 f63d 25e9 d83d

fc2.bias f4 [10]
-0.401492 -0.19431436 -0.11025416 0.15930447 0.42687634 -0.07189998 -0.02055187 -0.13146037
0.20304197 0.18425454
00000000: 5c90 cdbe 58fa 46be efcc e1bd b620 233e
00000010: 898f da3e 4c40 93bd 655c a8bc 8c9d 06be
00000020: 3cea 4f3e 39ad 3c3e
